protonet_1.pth (torch, 54463 bytes, 2 tensors)

0.weight f4 [32, 416]
0	0x3ccdb9d6	0.025113028
1	0x3ea4d1c0	0.32191277
2	0x3bf9e3e8	0.0076260455
3	0xbbc4f5b8	-0.0060107373
4	0x3cdbfe22	0.026854578
5	0x3ea9b265	0.33143917
6	0xbcd292d6	-0.025704782
7	0x3eb15dbe	0.34641832
8	0xbff5fc80	-1.9217682
9	0xbf91320e	-1.13434
10	0xc06d66ca	-3.7093987
11	0x3efdae90	0.49547243
12	0xbe9702a4	-0.29494202
13	0xbe272124	-0.16321236
14	0xbf1e2cef	-0.61787313
15	0xbcb68ed1	-0.022284897
16	0xbd44fbcc	-0.048091695
17	0x3d245aa9	0.040125523
18	0xbd46bf9b	-0.048522573
19	0x3a3fdfc0	0.0007319413
20	0xbd0febdf	-0.035137054
21	0x3f53ab24	0.82683015
22	0xc02b6a22	-2.6783528
23	0x3f5eee5d	0.87082464
24	0x40213358	2.5187588
25	0x3e81d639	0.2535875
26	0x3dca98d0	0.09892428
27	0xbe40384d	-0.18771477
28	0xc02f9c2d	-2.7439072
29	0xc04704ee	-3.109676
30	0x3dd61656	0.10453479
31	0xc01643bc	-2.3478842
32	0xbd58c694	-0.052923754
33	0x3f4da102	0.80323803
34	0x3e05615e	0.13025424
35	0xbf19b846	-0.60046804
36	0x3efa1c9f	0.4884996
37	0x3ec6174f	0.38689658
38	0x3f8b7a3c	1.0896678
39	0x3efbdb05	0.49190536
40	0xbfa0f498	-1.2574644
41	0xbf240703	-0.640732
42	0x3f3602d8	0.7109809
43	0x3f8e3133	1.1108764
44	0x3f4aaf3b	0.7917363
45	0x3f4a1b89	0.78948265
46	0xbe217438	-0.1576699
47	0x3f67d488	0.9055867
48	0x3ce40ef2	0.027839158
49	0x3f1d0645	0.6133769
50	0xbc1d1990	-0.009588614
51	0xbcd26b15	-0.025685826
52	0xbc33bf0c	-0.010970842
53	0x3cf5847e	0.029970404
54	0xbd416d2b	-0.04722325
55	0xbcbb9e4d	-0.022902632
56	0x3c9d087e	0.019169088
57	0xbd379309	-0.044817958
58	0x3d131e01	0.035917286
59	0xbc808874	-0.015690066
60	0xbd0433c4	-0.03227593
61	0xbcf22388	-0.029557958
62	0x3c21aa04	0.009867195
63	0x3ccef63a	0.025263894
64	0xbff02298	-1.8760557
65	0x3f883ac4	1.0642934
66	0x3c30bc82	0.010787131
67	0x3ed5efb0	0.4178443
68	0xbc71aed0	-0.014751151
69	0x3f70471b	0.938585
70	0x3f15b13b	0.5847356
71	0x3e9050f4	0.28186762
72	0xbd253b2b	-0.04033963
73	0x3cdb06e2	0.02673668
74	0x3cc39a82	0.023877386
75	0x3fce0fa3	1.6098522
76	0xbcf4f831	-0.029903503
77	0x3dc2967c	0.09501359
78	0x3db53930	0.08848798
79	0x3faa8fe7	1.3325166
80	0x3f0caadc	0.5494821
81	0x3e267b3b	0.16257946
82	0x3f90250e	1.1261308
83	0x3f4d1601	0.801117
84	0xbcbcda4a	-0.023053307
85	0x3f072f6c	0.52806735
86	0x3f966474	1.1749406
87	0x3f42321c	0.7585771
88	0xbe107243	-0.14106087
89	0x3f050ab1	0.5196944
90	0x3f8dae8a	1.106889
91	0xbe35e311	-0.177624
92	0xbe252b00	-0.16129684
93	0xbe4d3ce1	-0.20042755
94	0x3fe28a60	1.7698479
95	0xbe76d20d	-0.24103566
96	0x3f1a44d6	0.60261285
97	0xbd1334ee	-0.03593915
98	0xbc9b0ca2	-0.018926922
99	0x3d1dd94b	0.038537305
100	0xbe14ded7	-0.14538132
101	0x3f1e9e05	0.6195987
102	0x3f23f8a8	0.64051294
103	0xbccf5fa8	-0.025314167
104	0x3f22fa3f	0.63663095
105	0x3f25a3aa	0.64702857
106	0x3f967d11	1.1756917
107	0x3f0b5fa0	0.5444279
108	0x3f182476	0.59430635
109	0x3eaad077	0.3336217
110	0x3ba9e242	0.0051844427
111	0x3f2f2e86	0.68430364
112	0xbe86e1b9	-0.26344088
113	0xbd1a5983	-0.03768302
114	0x3f1cd21d	0.6125811
115	0x3f44858c	0.76766276
116	0xbe9cda28	-0.3063519
117	0xbd4b01cf	-0.04956227
118	0xbf011026	-0.50415266
119	0x3d281bb5	0.04104205
120	0xc0493d1f	-3.1443555
121	0xc0199358	-2.3996181
122	0xbe6dbe8c	-0.23217219
123	0x402f2eb5	2.7372258
124	0x40084c0e	2.129642
125	0x3f59f55b	0.8514001
126	0x3ffcac5f	1.9740103
127	0x3cceae37	0.025229556
128	0x3f2a7de0	0.6659832
129	0xbf8f7622	-1.1207926
130	0xbf269cec	-0.65083194
131	0x3ff83645	1.9391562
132	0x3fde6728	1.7375231
133	0x3f7dcd68	0.9914155
134	0x400b1141	2.172928
135	0x400f100b	2.2353542
136	0x400cff1e	2.203071
137	0xc0067760	-2.101036
138	0x3f6b925a	0.9202019
139	0xbf6ce622	-0.92538655
140	0x3f1cc7fd	0.6124266
141	0x3fc34e27	1.5258225
142	0x3faddf1d	1.3583714
143	0xbf083c12	-0.5321666
144	0xbd1d2647	-0.038366582
145	0x3e7a586e	0.24447796
146	0x3e14dcb7	0.14537321
147	0x3f82b223	1.0210613
148	0x3e474884	0.19461256
149	0x3e94506b	0.28967604
150	0x3ef9ff0a	0.48827392
151	0xbe2d2750	-0.16909528
152	0x3d7b5911	0.061364237
153	0xbbc15481	-0.005899966
154	0x3ea70843	0.3262349
155	0x3ee1f025	0.44128528
156	0x3e3c0963	0.18362956
157	0x3f09d3f9	0.5383907
158	0xbf187e02	-0.5956727
159	0x3df16cae	0.11788307
160	0xbe33b464	-0.17549282
161	0xbf76ca30	-0.96402264
162	0x40544ff1	3.3173792
163	0x3f9a9546	1.2076805
164	0x40032eb1	2.0497248
165	0x3fb6849c	1.4259219
166	0x3f5d69b6	0.8648943
167	0x3f97e4d4	1.1866708
168	0x3ee27e5c	0.4423703
169	0xbe26e980	-0.1630001
170	0xbee98be5	-0.45614544
171	0x3ebd10d5	0.36926904
172	0x3eda0eab	0.42589316
173	0x3f6c2896	0.9224943
174	0x3f6924ea	0.9107195
175	0x3f65f20b	0.89822453
176	0x3fe00f72	1.7504714
177	0x3f75ac67	0.9596619
178	0xbfef03a0	-1.8672981
179	0xbfe22712	-1.7668173
180	0x3d2aa7c3	0.041663896
181	0xbfae80a2	-1.3633006
182	0xbfaac1d9	-1.3340408
183	0x3f5d3bc2	0.8641931
184	0xbf1a052e	-0.60164154
185	0xbef406e4	-0.47661507
186	0xbea5558f	-0.3229184
187	0x3ffb4971	1.9631788
188	0x3fa8965e	1.3170888
189	0xbfb01348	-1.3755884
190	0xc005ddc7	-2.0916612
191	0x3ffc9a6f	1.9734629
192	0xbda12f04	-0.07870296
193	0xbf3a6ccf	-0.7282228
194	0xbf95bd65	-1.1698424
195	0xbe4dcec5	-0.20098408
196	0x3d560b47	0.05225685
197	0xbdb3e8a3	-0.08784606
198	0xbf817ffe	-1.0117185
199	0xbf217138	-0.63063383
200	0x3e7a9531	0.24470975
201	0x3e80fa02	0.2519074
202	0xbf206aa1	-0.626627
203	0xbeabf0b1	-0.3358207
204	0xbf7bccbf	-0.9835929
205	0xbcc4c959	-0.024021791
206	0x3eca0a52	0.39461
207	0xbf0c542d	-0.5481594
208	0x3ebd5d7c	0.36985385
209	0x3ed36149	0.4128516
210	0xbeb4012b	-0.3515714
211	0xbe8d9e5d	-0.27659884
212	0x3f3df843	0.7420694
213	0x3f8fe6c0	1.1242294
214	0x3eb2bd97	0.3491027
215	0x3e3d7b5c	0.18504089
216	0x3ee6e958	0.45099902
217	0xbc691ea6	-0.014228499
218	0x3e4d0b0a	0.20023742
219	0x3e3e65a6	0.18593463
220	0xbe042de4	-0.12908131
221	0x3f5cbfff	0.8623046
222	0x3f4cc885	0.7999347
223	0x3f509c3e	0.81488407
224	0x3ff26c82	1.8939364
225	0xbeff6ddf	-0.49888512
226	0x3f5a96ef	0.85386556
227	0x3f2bb57b	0.6707379
228	0x3d987324	0.07443836
229	0xbe16abd2	-0.14713982
230	0x3eb6d229	0.35707214
231	0xbf9687d2	-1.1760199
232	0xbe50e944	-0.20401484
233	0x3f1afb45	0.60539657
234	0x3fedc282	1.8574984
235	0xbf1a1c3d	-0.6019934
236	0x3e7ee0cc	0.2489044
237	0x3e71c174	0.23608953
238	0x3f6909dc	0.9103067
239	0x3e7ccecf	0.24688266
240	0xbf681e3a	-0.9067112
241	0x3f23ab81	0.6393357
242	0x3efa3eeb	0.48876128
243	0xbe4b6bb5	-0.19865306
244	0x3f80137c	1.0005946
245	0xbf2a5e24	-0.665499
246	0xbebf85a0	-0.37406635
247	0x3fa66f4d	1.3002716
248	0xbe12e9ff	-0.14347075
249	0xbf50e330	-0.8159666
250	0xbe45db87	-0.19322024
251	0x3b8acbb8	0.004235711
252	0x3f190869	0.5977846
253	0xbe09d2ce	-0.13459322
254	0x3e9e7a8c	0.3095287
255	0xbd083ba0	-0.033259988

0.bias f4 [32]
0	0x4107cda2	8.487703
1	0xbfc95ad5	-1.5730845
2	0xc06ca5da	-3.6976228
3	0x3f6ffcff	0.93745416
4	0xc0c93a98	-6.2884026
5	0x3f09a4ea	0.53767264
6	0xc025eab7	-2.5924509
7	0x40d71e3a	6.72244
8	0x3f881f38	1.0634527
9	0xbf360d9f	-0.71114534
10	0xc0788aa2	-3.8834615
11	0xc02f8cee	-2.7429767
12	0x3fb5594c	1.4167876
13	0x40f563ee	7.6684484
14	0x40884e5f	4.259567
15	0xbfd68dd4	-1.6762033
16	0xbf171e98	-0.5903106
17	0x4015cc53	2.340596
18	0x40434833	3.0512817
19	0xbf4f7109	-0.8103185
20	0x3fb8ed5b	1.4447435
21	0x41633e42	14.2027
22	0xc0720923	-3.7818077
23	0x400da8c7	2.2134264
24	0x4070000a	3.7500024
25	0xc09cb1be	-4.896697
26	0x3f7ca6d7	0.9869208
27	0x40ae37b1	5.4442983
28	0xc04027ec	-3.0024366
29	0xc018a125	-2.3848355
30	0x4025b2f9	2.5890486
31	0xbfe26828	-1.7688036
